{
  "nodes": [
    {
      "op": "null", 
      "name": "data", 
      "inputs": []
    }, 
    {
      "op": "null", 
      "name": "conv1_weight", 
      "attrs": {
        "kernel": "(3, 3)", 
        "num_filter": "16"
      }, 
      "inputs": []
    }, 
    {
      "op": "null", 
      "name": "conv1_bias", 
      "attrs": {
        "kernel": "(3, 3)", 
        "num_filter": "16"
      }, 
      "inputs": []
    }, 
    {
      "op": "Convolution", 
      "name": "conv1", 
      "attrs": {
        "kernel": "(3, 3)", 
        "num_filter": "16"
      }, 
      "inputs": [[0, 0, 0], [1, 0, 0], [2, 0, 0]]
    }, 
    {
      "op": "null", 
      "name": "prelu1_gamma", 
      "attrs": {
        "__init__": "[\"Constant\", {\"value\": 0.25}]", 
        "act_type": "prelu"
      }, 
      "inputs": []
    }, 
    {
      "op": "LeakyReLU", 
      "name": "prelu1", 
      "attrs": {"act_type": "prelu"}, 
      "inputs": [[3, 0, 0], [4, 0, 0]]
    }, 
    {
      "op": "Pooling", 
      "name": "pool1", 
      "attrs": {
        "kernel": "(3, 3)", 
        "pool_type": "max", 
        "pooling_convention": "full", 
        "stride": "(2, 2)"
      }, 
      "inputs": [[5, 0, 0]]
    }, 
    {
      "op": "null", 
      "name": "conv2_sep_weight", 
      "attrs": {
        "kernel": "(1, 1)", 
        "num_filter": "32"
      }, 
      "inputs": []
    }, 
    {
      "op": "null", 
      "name": "conv2_sep_bias", 
      "attrs": {
        "kernel": "(1, 1)", 
        "num_filter": "32"
      }, 
      "inputs": []
    }, 
    {
      "op": "Convolution", 
      "name": "conv2_sep", 
      "attrs": {
        "kernel": "(1, 1)", 
        "num_filter": "32"
      }, 
      "inputs": [[6, 0, 0], [7, 0, 0], [8, 0, 0]]
    }, 
    {
      "op": "null", 
      "name": "prelu2_gamma", 
      "attrs": {
        "__init__": "[\"Constant\", {\"value\": 0.25}]", 
        "act_type": "prelu"
      }, 
      "inputs": []
    }, 
    {
      "op": "LeakyReLU", 
      "name": "prelu2", 
      "attrs": {"act_type": "prelu"}, 
      "inputs": [[9, 0, 0], [10, 0, 0]]
    }, 
    {
      "op": "Pooling", 
      "name": "pool2", 
      "attrs": {
        "kernel": "(3, 3)", 
        "pool_type": "max", 
        "pooling_convention": "full", 
        "stride": "(2, 2)"
      }, 
      "inputs": [[11, 0, 0]]
    }, 
    {
      "op": "null", 
      "name": "conv3_sep_weight", 
      "attrs": {
        "kernel": "(1, 1)", 
        "num_filter": "64"
      }, 
      "inputs": []
    }, 
    {
      "op": "null", 
      "name": "conv3_sep_bias", 
      "attrs": {
        "kernel": "(1, 1)", 
        "num_filter": "64"
      }, 
      "inputs": []
    }, 
    {
      "op": "Convolution", 
      "name": "conv3_sep", 
      "attrs": {
        "kernel": "(1, 1)", 
        "num_filter": "64"
      }, 
      "inputs": [[12, 0, 0], [13, 0, 0], [14, 0, 0]]
    }, 
    {
      "op": "null", 
      "name": "prelu3_gamma", 
      "attrs": {
        "__init__": "[\"Constant\", {\"value\": 0.25}]", 
        "act_type": "prelu"
      }, 
      "inputs": []
    }, 
    {
      "op": "LeakyReLU", 
      "name": "prelu3", 
      "attrs": {"act_type": "prelu"}, 
      "inputs": [[15, 0, 0], [16, 0, 0]]
    }, 
    {
      "op": "null", 
      "name": "conv4_dw_weight", 
      "attrs": {
        "kernel": "(3, 3)", 
        "num_filter": "64", 
        "num_group": "64"
      }, 
      "inputs": []
    }, 
    {
      "op": "null", 
      "name": "conv4_dw_bias", 
      "attrs": {
        "kernel": "(3, 3)", 
        "num_filter": "64", 
        "num_group": "64"
      }, 
      "inputs": []
    }, 
    {
      "op": "Convolution", 
      "name": "conv4_dw", 
      "attrs": {
        "kernel": "(3, 3)", 
        "num_filter": "64", 
        "num_group": "64"
      }, 
      "inputs": [[17, 0, 0], [18, 0, 0], [19, 0, 0]]
    }, 
    {
      "op": "null", 
      "name": "prelu4_dw_gamma", 
      "attrs": {
        "__init__": "[\"Constant\", {\"value\": 0.25}]", 
        "act_type": "prelu"
      }, 
      "inputs": []
    }, 
    {
      "op": "LeakyReLU", 
      "name": "prelu4_dw", 
      "attrs": {"act_type": "prelu"}, 
      "inputs": [[20, 0, 0], [21, 0, 0]]
    }, 
    {
      "op": "null", 
      "name": "conv4_sep_weight", 
      "attrs": {
        "kernel": "(1, 1)", 
        "num_filter": "128"
      }, 
      "inputs": []
    }, 
    {
      "op": "null", 
      "name": "conv4_sep_bias", 
      "attrs": {
        "kernel": "(1, 1)", 
        "num_filter": "128"
      }, 
      "inputs": []
    }, 
    {
      "op": "Convolution", 
      "name": "conv4_sep", 
      "attrs": {
        "kernel": "(1, 1)", 
        "num_filter": "128"
      }, 
      "inputs": [[22, 0, 0], [23, 0, 0], [24, 0, 0]]
    }, 
    {
      "op": "null", 
      "name": "prelu4_gamma", 
      "attrs": {
        "__init__": "[\"Constant\", {\"value\": 0.25}]", 
        "act_type": "prelu"
      }, 
      "inputs": []
    }, 
    {
      "op": "LeakyReLU", 
      "name": "prelu4", 
      "attrs": {"act_type": "prelu"}, 
      "inputs": [[25, 0, 0], [26, 0, 0]]
    }, 
    {
      "op": "null", 
      "name": "conv5_dw_weight", 
      "attrs": {
        "kernel": "(3, 3)", 
        "num_filter": "128", 
        "num_group": "128"
      }, 
      "inputs": []
    }, 
    {
      "op": "null", 
      "name": "conv5_dw_bias", 
      "attrs": {
        "kernel": "(3, 3)", 
        "num_filter": "128", 
        "num_group": "128"
      }, 
      "inputs": []
    }, 
    {
      "op": "Convolution", 
      "name": "conv5_dw", 
      "attrs": {
        "kernel": "(3, 3)", 
        "num_filter": "128", 
        "num_group": "128"
      }, 
      "inputs": [[27, 0, 0], [28, 0, 0], [29, 0, 0]]
    }, 
    {
      "op": "null", 
      "name": "prelu5_dw_gamma", 
      "attrs": {
        "__init__": "[\"Constant\", {\"value\": 0.25}]", 
        "act_type": "prelu"
      }, 
      "inputs": []
    }, 
    {
      "op": "LeakyReLU", 
      "name": "prelu5_dw", 
      "attrs": {"act_type": "prelu"}, 
      "inputs": [[30, 0, 0], [31, 0, 0]]
    }, 
    {
      "op": "null", 
      "name": "conv5_1_weight", 
      "attrs": {"num_hidden": "2"}, 
      "inputs": []
    }, 
    {
      "op": "null", 
      "name": "conv5_1_bias", 
      "attrs": {"num_hidden": "2"}, 
      "inputs": []
    }, 
    {
      "op": "FullyConnected", 
      "name": "conv5_1", 
      "attrs": {"num_hidden": "2"}, 
      "inputs": [[32, 0, 0], [33, 0, 0], [34, 0, 0]]
    }, 
    {
      "op": "null", 
      "name": "bn5_1_gamma", 
      "attrs": {
        "fix_gamma": "False", 
        "momentum": "0.9"
      }, 
      "inputs": []
    }, 
    {
      "op": "null", 
      "name": "bn5_1_beta", 
      "attrs": {
        "fix_gamma": "False", 
        "momentum": "0.9"
      }, 
      "inputs": []
    }, 
    {
      "op": "null", 
      "name": "bn5_1_moving_mean", 
      "attrs": {
        "__init__": "[\"zero\", {}]", 
        "fix_gamma": "False", 
        "momentum": "0.9"
      }, 
      "inputs": []
    }, 
    {
      "op": "null", 
      "name": "bn5_1_moving_var", 
      "attrs": {
        "__init__": "[\"one\", {}]", 
        "fix_gamma": "False", 
        "momentum": "0.9"
      }, 
      "inputs": []
    }, 
    {
      "op": "BatchNorm", 
      "name": "bn5_1", 
      "attrs": {
        "fix_gamma": "False", 
        "momentum": "0.9"
      }, 
      "inputs": [[35, 0, 0], [36, 0, 0], [37, 0, 0], [38, 0, 1], [39, 0, 1]]
    }, 
    {
      "op": "null", 
      "name": "label", 
      "inputs": []
    }, 
    {
      "op": "SoftmaxOutput", 
      "name": "cls_prob", 
      "attrs": {"use_ignore": "True"}, 
      "inputs": [[40, 0, 0], [41, 0, 0]]
    }, 
    {
      "op": "null", 
      "name": "conv5_2_weight", 
      "attrs": {"num_hidden": "4"}, 
      "inputs": []
    }, 
    {
      "op": "null", 
      "name": "conv5_2_bias", 
      "attrs": {"num_hidden": "4"}, 
      "inputs": []
    }, 
    {
      "op": "FullyConnected", 
      "name": "conv5_2", 
      "attrs": {"num_hidden": "4"}, 
      "inputs": [[32, 0, 0], [43, 0, 0], [44, 0, 0]]
    }, 
    {
      "op": "null", 
      "name": "bn5_2_gamma", 
      "attrs": {
        "fix_gamma": "False", 
        "momentum": "0.9"
      }, 
      "inputs": []
    }, 
    {
      "op": "null", 
      "name": "bn5_2_beta", 
      "attrs": {
        "fix_gamma": "False", 
        "momentum": "0.9"
      }, 
      "inputs": []
    }, 
    {
      "op": "null", 
      "name": "bn5_2_moving_mean", 
      "attrs": {
        "__init__": "[\"zero\", {}]", 
        "fix_gamma": "False", 
        "momentum": "0.9"
      }, 
      "inputs": []
    }, 
    {
      "op": "null", 
      "name": "bn5_2_moving_var", 
      "attrs": {
        "__init__": "[\"one\", {}]", 
        "fix_gamma": "False", 
        "momentum": "0.9"
      }, 
      "inputs": []
    }, 
    {
      "op": "BatchNorm", 
      "name": "bn5_2", 
      "attrs": {
        "fix_gamma": "False", 
        "momentum": "0.9"
      }, 
      "inputs": [[45, 0, 0], [46, 0, 0], [47, 0, 0], [48, 0, 1], [49, 0, 1]]
    }, 
    {
      "op": "null", 
      "name": "bbox_target", 
      "inputs": []
    }, 
    {
      "op": "LinearRegressionOutput", 
      "name": "bbox_pred", 
      "attrs": {"grad_scale": "1"}, 
      "inputs": [[50, 0, 0], [51, 0, 0]]
    }, 
    {
      "op": "Custom", 
      "name": "negative_mining", 
      "attrs": {"op_type": "negativemining"}, 
      "inputs": [[42, 0, 0], [41, 0, 0], [52, 0, 0], [51, 0, 0]]
    }
  ], 
  "arg_nodes": [
    0, 
    1, 
    2, 
    4, 
    7, 
    8, 
    10, 
    13, 
    14, 
    16, 
    18, 
    19, 
    21, 
    23, 
    24, 
    26, 
    28, 
    29, 
    31, 
    33, 
    34, 
    36, 
    37, 
    38, 
    39, 
    41, 
    43, 
    44, 
    46, 
    47, 
    48, 
    49, 
    51
  ], 
  "node_row_ptr": [
    0, 
    1, 
    2, 
    3, 
    4, 
    5, 
    6, 
    7, 
    8, 
    9, 
    10, 
    11, 
    12, 
    13, 
    14, 
    15, 
    16, 
    17, 
    18, 
    19, 
    20, 
    21, 
    22, 
    23, 
    24, 
    25, 
    26, 
    27, 
    28, 
    29, 
    30, 
    31, 
    32, 
    33, 
    34, 
    35, 
    36, 
    37, 
    38, 
    39, 
    40, 
    43, 
    44, 
    45, 
    46, 
    47, 
    48, 
    49, 
    50, 
    51, 
    52, 
    55, 
    56, 
    57, 
    61
  ], 
  "heads": [[53, 0, 0], [53, 1, 0], [53, 2, 0], [53, 3, 0]], 
  "attrs": {"mxnet_version": ["int", 10100]}
}